…
               This code loads the VGG16 model with weights trained on the ImageNet
          dataset. This large-scale, extensively annotated image database, designed for
          use in research on visual object recognition software, contains millions of
          images categorized according to a hierarchy of descriptive labels. The code
          then sets the model to evaluation mode with the eval() method and freezes
          all weights to prevent further changes with the requires_grad_(False) method.
               When you print the VGG16 model with print(model), you get Listing 3-58.

          VGG(
            (features): Sequential(
              (0): Conv2d(3, 64, kernel_size=(3, 3), stride=(1, 1), padding=(1, 1))
              (1): ReLU(inplace=True)
              (2): Conv2d(64, 64, kernel_size=(3, 3), stride=(1, 1), padding=(1, 1))
              (3): ReLU(inplace=True)
              (4): MaxPool2d(kernel_size=2, stride=2, padding=0, dilation=1, ...
              (5): Conv2d(64, 128, kernel_size=(3, 3), stride=(1, 1), padding=(1, 1))
              (6): ReLU(inplace=True)
              (7): Conv2d(128, 128, kernel_size=(3, 3), stride=(1, 1), padding=(1, 1))
              (8): ReLU(inplace=True)
              (9): MaxPool2d(kernel_size=2, stride=2, padding=0, dilation=1, ...
              (10): Conv2d(128, 256, kernel_size=(3, 3), stride=(1, 1), padding=(1, 1))
              (11): ReLU(inplace=True)
              (12): Conv2d(256, 256, kernel_size=(3, 3), stride=(1, 1), padding=(1, 1))
              (13): ReLU(inplace=True)
              (14): Conv2d(256, 256, kernel_size=(3, 3), stride=(1, 1), padding=(1, 1))
              (15): ReLU(inplace=True)
              (16): MaxPool2d(kernel_size=2, stride=2, padding=0, dilation=1, ...
              (17): Conv2d(256, 512, kernel_size=(3, 3), stride=(1, 1), padding=(1, 1))
              (18): ReLU(inplace=True)
              (19): Conv2d(512, 512, kernel_size=(3, 3), stride=(1, 1), padding=(1, 1))
              (20): ReLU(inplace=True)
                                                      Processing Images with Convolutional Neural Networks   147
         Deep Learning Crash Course (Sample Chapter) © 2025 by Giovanni Volpe, Benjamin Midtvedt,
         Jesús Pineda, Henrik Klein Moberg, Harshith Bachimanchi, Joana B. Pereira, and Carlo Manzo

                         (21): Conv2d(512, 512, kernel_size=(3, 3), stride=(1, 1), padding=(1, 1))
                         (22): ReLU(inplace=True)
                         (23): MaxPool2d(kernel_size=2, stride=2, padding=0, dilation=1, ...
                         (24): Conv2d(512, 512, kernel_size=(3, 3), stride=(1, 1), padding=(1, 1))
                         (25): ReLU(inplace=True)
                         (26): Conv2d(512, 512, kernel_size=(3, 3), stride=(1, 1), padding=(1, 1))
                         (27): ReLU(inplace=True)
                         (28): Conv2d(512, 512, kernel_size=(3, 3), stride=(1, 1), padding=(1, 1))
                         (29): ReLU(inplace=True)
                         (30): MaxPool2d(kernel_size=2, stride=2, padding=0, dilation=1, ...
                       )
                       (avgpool): AdaptiveAvgPool2d(output_size=(7, 7))
                       (classifier): Sequential(
                         (0): Linear(in_features=25088, out_features=4096, bias=True)
                         (1): ReLU(inplace=True)
                         (2): Dropout(p=0.5, inplace=False)
                         (3): Linear(in_features=4096, out_features=4096, bias=True)
                         (4): ReLU(inplace=True)
                         (5): Dropout(p=0.5, inplace=False)
                         (6): Linear(in_features=4096, out_features=1000, bias=True)
                       )
                   )

                   Listing 3-58: Printout of the VGG16 model

                        The VGG16 model is structured hierarchically, starting with a features
                   module composed of a series of convolutional (Conv2d) and ReLU (ReLU) layers.
                   These layers progressively increase the number of feature maps, starting from
…
